…
2021-12-18 00:03:56,018 [INFO] Starting training with the following hyperparameters: {'batch_size': 32, 'cls_bidirectional': True, 'cls_dropout': 0.2, 'cls_hidden_dim': 256, 'cls_model_type': 'lstm', 'cls_num_layers': 1, 'early_stopping_threshold': 25, 'lr': 0.001, 'masker_bidirectional': True, 'masker_dropout': 0.2, 'masker_hidden_dim': 256, 'masker_model_type': 'lstm', 'masker_num_layers': 1, 'max_seq_length': 512, 'num_epochs': 100}
2021-12-18 00:03:56,134 [INFO] Model created...
2021-12-18 00:03:56,134 [INFO] ==========================================================================================
2021-12-18 00:03:56,135 [INFO] Training model:
RNNMasker(
  (embeddings): Embedding(30522, 768, padding_idx=0)
  (rnn): LSTM(768, 256, batch_first=True, bidirectional=True)
  (dropout): Dropout(p=0.2, inplace=False)
  (projection): Linear(in_features=512, out_features=768, bias=True)
  (dense): Linear(in_features=768, out_features=1, bias=True)
)
BERTModel - distilbert-base-uncased
GLU(
  (mask_proj): Linear(in_features=768, out_features=768, bias=True)
  (embs_proj): Linear(in_features=768, out_features=768, bias=True)
)
RNNClassifier(
  (embeddings): Embedding(30522, 768, padding_idx=0)
  (rnn): LSTM(769, 256, batch_first=True, bidirectional=True)
  (dropout): Dropout(p=0.2, inplace=False)
  (dense): Linear(in_features=512, out_features=2, bias=True)
)
2021-12-18 00:03:56,135 [INFO] ******************************************************************************************
2021-12-18 00:03:56,135 [INFO] Training epoch 0
2021-12-18 00:04:09,124 [INFO] | epoch   0 |  10/267 batches | training accuracy 0.531 | masked_ratio 0.750
2021-12-18 00:04:09,641 [INFO] | epoch   0 |  20/267 batches | training accuracy 0.531 | masked_ratio 0.612
…
2021-12-18 00:12:07,389 [INFO] Starting training with the following hyperparameters: {'batch_size': 32, 'cls_bidirectional': True, 'cls_dropout': 0.2, 'cls_hidden_dim': 256, 'cls_model_type': 'lstm', 'cls_num_layers': 1, 'early_stopping_threshold': 25, 'lr': 0.001, 'masker_bidirectional': True, 'masker_dropout': 0.2, 'masker_hidden_dim': 512, 'masker_model_type': 'lstm', 'masker_num_layers': 1, 'max_seq_length': 512, 'num_epochs': 100}
2021-12-18 00:12:07,472 [INFO] Model created...
2021-12-18 00:12:07,473 [INFO] ==========================================================================================
2021-12-18 00:12:07,474 [INFO] Training model:
RNNMasker(
  (embeddings): Embedding(30522, 768, padding_idx=0)
  (rnn): LSTM(768, 512, batch_first=True, bidirectional=True)
  (dropout): Dropout(p=0.2, inplace=False)
  (projection): Linear(in_features=1024, out_features=768, bias=True)
  (dense): Linear(in_features=768, out_features=1, bias=True)
)
BERTModel - distilbert-base-uncased
GLU(
  (mask_proj): Linear(in_features=768, out_features=768, bias=True)
  (embs_proj): Linear(in_features=768, out_features=768, bias=True)
)
RNNClassifier(
  (embeddings): Embedding(30522, 768, padding_idx=0)
  (rnn): LSTM(769, 256, batch_first=True, bidirectional=True)
  (dropout): Dropout(p=0.2, inplace=False)
  (dense): Linear(in_features=512, out_features=2, bias=True)
)
2021-12-18 00:12:07,474 [INFO] ******************************************************************************************
2021-12-18 00:12:07,474 [INFO] Training epoch 0
2021-12-18 00:12:08,189 [INFO] | epoch   0 |  10/267 batches | training accuracy 0.523 | masked_ratio 0.642
2021-12-18 00:12:08,802 [INFO] | epoch   0 |  20/267 batches | training accuracy 0.562 | masked_ratio 0.568
…
2021-12-18 00:21:42,604 [INFO] Starting training with the following hyperparameters: {'batch_size': 32, 'cls_bidirectional': True, 'cls_dropout': 0.2, 'cls_hidden_dim': 256, 'cls_model_type': 'lstm', 'cls_num_layers': 1, 'early_stopping_threshold': 25, 'lr': 0.001, 'masker_bidirectional': True, 'masker_dropout': 0.2, 'masker_hidden_dim': 768, 'masker_model_type': 'lstm', 'masker_num_layers': 1, 'max_seq_length': 512, 'num_epochs': 100}
2021-12-18 00:21:42,723 [INFO] Model created...
2021-12-18 00:21:42,724 [INFO] ==========================================================================================
2021-12-18 00:21:42,725 [INFO] Training model:
RNNMasker(
  (embeddings): Embedding(30522, 768, padding_idx=0)
  (rnn): LSTM(768, 768, batch_first=True, bidirectional=True)
  (dropout): Dropout(p=0.2, inplace=False)
  (projection): Linear(in_features=1536, out_features=768, bias=True)
  (dense): Linear(in_features=768, out_features=1, bias=True)
)
BERTModel - distilbert-base-uncased
GLU(
  (mask_proj): Linear(in_features=768, out_features=768, bias=True)
  (embs_proj): Linear(in_features=768, out_features=768, bias=True)
)
RNNClassifier(
  (embeddings): Embedding(30522, 768, padding_idx=0)
  (rnn): LSTM(769, 256, batch_first=True, bidirectional=True)
  (dropout): Dropout(p=0.2, inplace=False)
  (dense): Linear(in_features=512, out_features=2, bias=True)
)
2021-12-18 00:21:42,725 [INFO] ******************************************************************************************
2021-12-18 00:21:42,725 [INFO] Training epoch 0
2021-12-18 00:21:43,509 [INFO] | epoch   0 |  10/267 batches | training accuracy 0.511 | masked_ratio 0.205
2021-12-18 00:21:44,211 [INFO] | epoch   0 |  20/267 batches | training accuracy 0.491 | masked_ratio 0.203
…
