…
2021-12-18 01:32:23,848 [INFO] Starting training with the following hyperparameters: {'batch_size': 32, 'cls_bidirectional': True, 'cls_dropout': 0.2, 'cls_hidden_dim': 256, 'cls_model_type': 'lstm', 'cls_num_layers': 1, 'early_stopping_threshold': 25, 'lr': 0.001, 'masker_bidirectional': True, 'masker_dropout': 0.2, 'masker_hidden_dim': 256, 'masker_model_type': 'lstm', 'masker_num_layers': 1, 'max_seq_length': 512, 'num_epochs': 100}
2021-12-18 01:32:23,968 [INFO] Model created...
2021-12-18 01:32:23,969 [INFO] ==========================================================================================
2021-12-18 01:32:23,969 [INFO] Training model:
RNNMasker(
  (embeddings): Embedding(30522, 768, padding_idx=0)
  (rnn): LSTM(768, 256, batch_first=True, bidirectional=True)
  (dropout): Dropout(p=0.2, inplace=False)
  (projection): Linear(in_features=512, out_features=768, bias=True)
  (dense): Linear(in_features=768, out_features=1, bias=True)
)
BERTModel - distilbert-base-uncased
GLU(
  (mask_proj): Linear(in_features=768, out_features=768, bias=True)
  (embs_proj): Linear(in_features=768, out_features=768, bias=True)
)
RNNClassifier(
  (embeddings): Embedding(30522, 768, padding_idx=0)
  (rnn): LSTM(769, 256, batch_first=True, bidirectional=True)
  (dropout): Dropout(p=0.2, inplace=False)
  (dense): Linear(in_features=512, out_features=3, bias=True)
)
2021-12-18 01:32:23,969 [INFO] ******************************************************************************************
2021-12-18 01:32:23,970 [INFO] Training epoch 0
2021-12-18 01:32:33,486 [INFO] | epoch   0 |  10/ 11 batches | training accuracy 0.604 | masked_ratio 0.080
2021-12-18 01:32:34,500 [INFO] ******************************************************************************************
…
2021-12-18 01:37:23,890 [INFO] Starting training with the following hyperparameters: {'batch_size': 32, 'cls_bidirectional': True, 'cls_dropout': 0.2, 'cls_hidden_dim': 256, 'cls_model_type': 'lstm', 'cls_num_layers': 1, 'early_stopping_threshold': 25, 'lr': 0.001, 'masker_bidirectional': True, 'masker_dropout': 0.2, 'masker_hidden_dim': 512, 'masker_model_type': 'lstm', 'masker_num_layers': 1, 'max_seq_length': 512, 'num_epochs': 100}
2021-12-18 01:37:23,978 [INFO] Model created...
2021-12-18 01:37:23,979 [INFO] ==========================================================================================
2021-12-18 01:37:23,979 [INFO] Training model:
RNNMasker(
  (embeddings): Embedding(30522, 768, padding_idx=0)
  (rnn): LSTM(768, 512, batch_first=True, bidirectional=True)
  (dropout): Dropout(p=0.2, inplace=False)
  (projection): Linear(in_features=1024, out_features=768, bias=True)
  (dense): Linear(in_features=768, out_features=1, bias=True)
)
BERTModel - distilbert-base-uncased
GLU(
  (mask_proj): Linear(in_features=768, out_features=768, bias=True)
  (embs_proj): Linear(in_features=768, out_features=768, bias=True)
)
RNNClassifier(
  (embeddings): Embedding(30522, 768, padding_idx=0)
  (rnn): LSTM(769, 256, batch_first=True, bidirectional=True)
  (dropout): Dropout(p=0.2, inplace=False)
  (dense): Linear(in_features=512, out_features=3, bias=True)
)
2021-12-18 01:37:23,979 [INFO] ******************************************************************************************
2021-12-18 01:37:23,979 [INFO] Training epoch 0
2021-12-18 01:37:30,494 [INFO] | epoch   0 |  10/ 11 batches | training accuracy 0.584 | masked_ratio 0.942
2021-12-18 01:37:31,549 [INFO] ******************************************************************************************
…
2021-12-18 01:44:06,212 [INFO] Starting training with the following hyperparameters: {'batch_size': 32, 'cls_bidirectional': True, 'cls_dropout': 0.2, 'cls_hidden_dim': 256, 'cls_model_type': 'lstm', 'cls_num_layers': 1, 'early_stopping_threshold': 25, 'lr': 0.001, 'masker_bidirectional': True, 'masker_dropout': 0.2, 'masker_hidden_dim': 768, 'masker_model_type': 'lstm', 'masker_num_layers': 1, 'max_seq_length': 512, 'num_epochs': 100}
2021-12-18 01:44:06,331 [INFO] Model created...
2021-12-18 01:44:06,338 [INFO] ==========================================================================================
2021-12-18 01:44:06,338 [INFO] Training model:
RNNMasker(
  (embeddings): Embedding(30522, 768, padding_idx=0)
  (rnn): LSTM(768, 768, batch_first=True, bidirectional=True)
  (dropout): Dropout(p=0.2, inplace=False)
  (projection): Linear(in_features=1536, out_features=768, bias=True)
  (dense): Linear(in_features=768, out_features=1, bias=True)
)
BERTModel - distilbert-base-uncased
GLU(
  (mask_proj): Linear(in_features=768, out_features=768, bias=True)
  (embs_proj): Linear(in_features=768, out_features=768, bias=True)
)
RNNClassifier(
  (embeddings): Embedding(30522, 768, padding_idx=0)
  (rnn): LSTM(769, 256, batch_first=True, bidirectional=True)
  (dropout): Dropout(p=0.2, inplace=False)
  (dense): Linear(in_features=512, out_features=3, bias=True)
)
2021-12-18 01:44:06,338 [INFO] ******************************************************************************************
2021-12-18 01:44:06,339 [INFO] Training epoch 0
2021-12-18 01:44:13,573 [INFO] | epoch   0 |  10/ 11 batches | training accuracy 0.581 | masked_ratio 0.010
2021-12-18 01:44:14,680 [INFO] ******************************************************************************************
…
