…
2021-12-18 03:08:55,106 [INFO] Starting training with the following hyperparameters: {'batch_size': 32, 'cls_bidirectional': True, 'cls_dropout': 0.2, 'cls_hidden_dim': 256, 'cls_model_type': 'lstm', 'cls_num_layers': 1, 'early_stopping_threshold': 25, 'lr': 0.001, 'masker_bidirectional': True, 'masker_dropout': 0.2, 'masker_hidden_dim': 256, 'masker_model_type': 'lstm', 'masker_num_layers': 1, 'max_seq_length': 512, 'num_epochs': 100}
2021-12-18 03:08:55,213 [INFO] Model created...
2021-12-18 03:08:55,213 [INFO] ==========================================================================================
2021-12-18 03:08:55,214 [INFO] Training model:
RNNMasker(
  (embeddings): Embedding(30522, 768, padding_idx=0)
  (rnn): LSTM(768, 256, batch_first=True, bidirectional=True)
  (dropout): Dropout(p=0.2, inplace=False)
  (projection): Linear(in_features=512, out_features=768, bias=True)
  (dense): Linear(in_features=768, out_features=1, bias=True)
)
BERTModel - distilbert-base-uncased
GLU(
  (mask_proj): Linear(in_features=768, out_features=768, bias=True)
  (embs_proj): Linear(in_features=768, out_features=768, bias=True)
)
RNNClassifier(
  (embeddings): Embedding(30522, 768, padding_idx=0)
  (rnn): LSTM(769, 256, batch_first=True, bidirectional=True)
  (dropout): Dropout(p=0.2, inplace=False)
  (dense): Linear(in_features=512, out_features=5, bias=True)
)
2021-12-18 03:08:55,214 [INFO] ******************************************************************************************
2021-12-18 03:08:55,214 [INFO] Training epoch 0
2021-12-18 03:09:04,216 [INFO] | epoch   0 |  10/ 56 batches | training accuracy 0.244 | masked_ratio 0.483
2021-12-18 03:09:09,285 [INFO] | epoch   0 |  20/ 56 batches | training accuracy 0.378 | masked_ratio 0.929
…
2021-12-18 03:28:37,219 [INFO] Starting training with the following hyperparameters: {'batch_size': 32, 'cls_bidirectional': True, 'cls_dropout': 0.2, 'cls_hidden_dim': 256, 'cls_model_type': 'lstm', 'cls_num_layers': 1, 'early_stopping_threshold': 25, 'lr': 0.001, 'masker_bidirectional': True, 'masker_dropout': 0.2, 'masker_hidden_dim': 512, 'masker_model_type': 'lstm', 'masker_num_layers': 1, 'max_seq_length': 512, 'num_epochs': 100}
2021-12-18 03:28:37,299 [INFO] Model created...
2021-12-18 03:28:37,300 [INFO] ==========================================================================================
2021-12-18 03:28:37,300 [INFO] Training model:
RNNMasker(
  (embeddings): Embedding(30522, 768, padding_idx=0)
  (rnn): LSTM(768, 512, batch_first=True, bidirectional=True)
  (dropout): Dropout(p=0.2, inplace=False)
  (projection): Linear(in_features=1024, out_features=768, bias=True)
  (dense): Linear(in_features=768, out_features=1, bias=True)
)
BERTModel - distilbert-base-uncased
GLU(
  (mask_proj): Linear(in_features=768, out_features=768, bias=True)
  (embs_proj): Linear(in_features=768, out_features=768, bias=True)
)
RNNClassifier(
  (embeddings): Embedding(30522, 768, padding_idx=0)
  (rnn): LSTM(769, 256, batch_first=True, bidirectional=True)
  (dropout): Dropout(p=0.2, inplace=False)
  (dense): Linear(in_features=512, out_features=5, bias=True)
)
2021-12-18 03:28:37,301 [INFO] ******************************************************************************************
2021-12-18 03:28:37,301 [INFO] Training epoch 0
2021-12-18 03:28:43,537 [INFO] | epoch   0 |  10/ 56 batches | training accuracy 0.284 | masked_ratio 0.884
2021-12-18 03:28:49,192 [INFO] | epoch   0 |  20/ 56 batches | training accuracy 0.519 | masked_ratio 0.212
…
2021-12-18 04:18:06,489 [INFO] Starting training with the following hyperparameters: {'batch_size': 32, 'cls_bidirectional': True, 'cls_dropout': 0.2, 'cls_hidden_dim': 256, 'cls_model_type': 'lstm', 'cls_num_layers': 1, 'early_stopping_threshold': 25, 'lr': 0.001, 'masker_bidirectional': True, 'masker_dropout': 0.2, 'masker_hidden_dim': 768, 'masker_model_type': 'lstm', 'masker_num_layers': 1, 'max_seq_length': 512, 'num_epochs': 100}
2021-12-18 04:18:06,612 [INFO] Model created...
2021-12-18 04:18:06,613 [INFO] ==========================================================================================
2021-12-18 04:18:06,613 [INFO] Training model:
RNNMasker(
  (embeddings): Embedding(30522, 768, padding_idx=0)
  (rnn): LSTM(768, 768, batch_first=True, bidirectional=True)
  (dropout): Dropout(p=0.2, inplace=False)
  (projection): Linear(in_features=1536, out_features=768, bias=True)
  (dense): Linear(in_features=768, out_features=1, bias=True)
)
BERTModel - distilbert-base-uncased
GLU(
  (mask_proj): Linear(in_features=768, out_features=768, bias=True)
  (embs_proj): Linear(in_features=768, out_features=768, bias=True)
)
RNNClassifier(
  (embeddings): Embedding(30522, 768, padding_idx=0)
  (rnn): LSTM(769, 256, batch_first=True, bidirectional=True)
  (dropout): Dropout(p=0.2, inplace=False)
  (dense): Linear(in_features=512, out_features=5, bias=True)
)
2021-12-18 04:18:06,613 [INFO] ******************************************************************************************
2021-12-18 04:18:06,614 [INFO] Training epoch 0
2021-12-18 04:18:13,592 [INFO] | epoch   0 |  10/ 56 batches | training accuracy 0.273 | masked_ratio 0.992
2021-12-18 04:18:19,905 [INFO] | epoch   0 |  20/ 56 batches | training accuracy 0.200 | masked_ratio 0.033
…
